Random seed set as 42
/home/zpengmei/mambaforge/envs/pytorch/lib/python3.11/site-packages/torch_geometric/deprecation.py:22: UserWarning: 'data.DataLoader' is deprecated, use 'loader.DataLoader' instead
  warnings.warn(out)
SubFormer(
  (local_mp): LocalMP(
    (atom_encoder): AtomEncoder(
      (embeddings): ModuleList(
        (0-8): 9 x Embedding(100, 256)
      )
    )
    (clique_encoder): Embedding(4, 256)
    (activation): ReLU()
    (back_activation): LeakyReLU(negative_slope=0.01)
    (bond_encoders): ModuleList(
      (0-2): 3 x BondEncoder(
        (embeddings): ModuleList(
          (0-2): 3 x Embedding(6, 256)
        )
      )
    )
    (graph_convs): ModuleList(
      (0-2): 3 x GINEConv(nn=Sequential(
        (0): Linear(in_features=256, out_features=512, bias=True)
        (1): BatchNorm1d(512, eps=1e-05, momentum=0.1, affine=True, track_running_stats=True)
        (2): ReLU()
        (3): Linear(in_features=512, out_features=256, bias=True)
      ))
    )
    (graph_norms): ModuleList(
      (0-2): 3 x BatchNorm1d(256, eps=1e-05, momentum=0.1, affine=True, track_running_stats=True)
    )
    (sub_norms): ModuleList(
      (0-2): 3 x BatchNorm1d(256, eps=1e-05, momentum=0.1, affine=True, track_running_stats=True)
    )
    (atom2clique_lins): ModuleList(
      (0-2): 3 x Linear(in_features=256, out_features=256, bias=True)
    )
    (clique2atom_lins): ModuleList(
      (0-2): 3 x Linear(in_features=256, out_features=256, bias=True)
    )
    (clique): Linear(in_features=256, out_features=256, bias=True)
  )
  (pe): PositionalEncoding(
    (activation): ReLU()
    (deg_emb): Embedding(100, 256)
    (deg_lin): Linear(in_features=256, out_features=256, bias=True)
    (deg_merge): Linear(in_features=256, out_features=256, bias=True)
    (tree_lpe_lin): Linear(in_features=16, out_features=128, bias=True)
    (lpe_lin): Linear(in_features=16, out_features=128, bias=True)
  )
  (encoder): Encoder(
    (activation): ReLU()
    (encoder_layer): TransformerEncoderLayer(
      (self_attn): MultiheadAttention(
        (out_proj): NonDynamicallyQuantizableLinear(in_features=512, out_features=512, bias=True)
      )
      (linear1): Linear(in_features=512, out_features=512, bias=True)
      (dropout): Dropout(p=0.2, inplace=False)
      (linear2): Linear(in_features=512, out_features=512, bias=True)
      (norm1): LayerNorm((512,), eps=1e-05, elementwise_affine=True)
      (norm2): LayerNorm((512,), eps=1e-05, elementwise_affine=True)
      (dropout1): Dropout(p=0.2, inplace=False)
      (dropout2): Dropout(p=0.2, inplace=False)
    )
    (encoder): TransformerEncoder(
      (layers): ModuleList(
        (0-3): 4 x TransformerEncoderLayer(
          (self_attn): MultiheadAttention(
            (out_proj): NonDynamicallyQuantizableLinear(in_features=512, out_features=512, bias=True)
          )
          (linear1): Linear(in_features=512, out_features=512, bias=True)
          (dropout): Dropout(p=0.2, inplace=False)
          (linear2): Linear(in_features=512, out_features=512, bias=True)
          (norm1): LayerNorm((512,), eps=1e-05, elementwise_affine=True)
          (norm2): LayerNorm((512,), eps=1e-05, elementwise_affine=True)
          (dropout1): Dropout(p=0.2, inplace=False)
          (dropout2): Dropout(p=0.2, inplace=False)
        )
      )
    )
  )
  (readout): Sequential(
    (0): Linear(in_features=768, out_features=512, bias=True)
    (1): ReLU()
    (2): Linear(in_features=512, out_features=512, bias=True)
    (3): ReLU()
    (4): Linear(in_features=512, out_features=17, bias=True)
  )
)

100%|█████████████████████████████████████████████████████████████████████████████████| 582/582 [00:22<00:00, 25.74it/s]
Epoch: 001, Loss: 0.0213, Train: 0.0132, Val: 0.0107, Test: 0.1096
100%|█████████████████████████████████████████████████████████████████████████████████| 582/582 [00:22<00:00, 25.82it/s]
Epoch: 002, Loss: 0.0146, Train: 0.0598, Val: 0.0500, Test: 0.0703
…
