SubFormer(
  (local_mp): LocalMP(
    (atom_encoder): AtomEncoder(
      (embeddings): ModuleList(
        (0-8): 9 x Embedding(100, 128)
      )
    )
    (clique_encoder): Embedding(4, 128)
    (bond_encoders): ModuleList(
      (0-2): 3 x BondEncoder(
        (embeddings): ModuleList(
          (0-2): 3 x Embedding(6, 128)
        )
      )
    )
    (graph_convs): ModuleList(
      (0-2): 3 x GINEConv(nn=Sequential(
        (0): Linear(in_features=128, out_features=256, bias=True)
        (1): BatchNorm1d(256, eps=1e-05, momentum=0.1, affine=True, track_running_stats=True)
        (2): ReLU()
        (3): Linear(in_features=256, out_features=128, bias=True)
      ))
    )
    (graph_norms): ModuleList(
      (0-2): 3 x BatchNorm1d(128, eps=1e-05, momentum=0.1, affine=True, track_running_stats=True)
    )
    (sub_norms): ModuleList(
      (0-2): 3 x BatchNorm1d(128, eps=1e-05, momentum=0.1, affine=True, track_running_stats=True)
    )
    (atom2clique_lins): ModuleList(
      (0-2): 3 x Linear(in_features=128, out_features=128, bias=True)
    )
    (clique2atom_lins): ModuleList(
      (0-2): 3 x Linear(in_features=128, out_features=128, bias=True)
    )
    (clique): Linear(in_features=128, out_features=128, bias=True)
  )
  (pe): PositionalEncoding(
    (activation): GELU(approximate='none')
    (deg_emb): Embedding(100, 128)
    (deg_lin): Linear(in_features=128, out_features=128, bias=True)
    (deg_merge): Linear(in_features=128, out_features=128, bias=True)
    (tree_lpe_lin): Linear(in_features=16, out_features=64, bias=True)
    (lpe_lin): Linear(in_features=16, out_features=64, bias=True)
  )
  (encoder): Encoder(
    (activation): ReLU()
    (encoder_layer): TransformerEncoderLayer(
      (self_attn): MultiheadAttention(
        (out_proj): NonDynamicallyQuantizableLinear(in_features=128, out_features=128, bias=True)
      )
      (linear1): Linear(in_features=128, out_features=256, bias=True)
      (dropout): Dropout(p=0.05, inplace=False)
      (linear2): Linear(in_features=256, out_features=128, bias=True)
      (norm1): LayerNorm((128,), eps=1e-05, elementwise_affine=True)
      (norm2): LayerNorm((128,), eps=1e-05, elementwise_affine=True)
      (dropout1): Dropout(p=0.05, inplace=False)
      (dropout2): Dropout(p=0.05, inplace=False)
    )
    (encoder): TransformerEncoder(
      (layers): ModuleList(
        (0-3): 4 x TransformerEncoderLayer(
          (self_attn): MultiheadAttention(
            (out_proj): NonDynamicallyQuantizableLinear(in_features=128, out_features=128, bias=True)
          )
          (linear1): Linear(in_features=128, out_features=256, bias=True)
          (dropout): Dropout(p=0.05, inplace=False)
          (linear2): Linear(in_features=256, out_features=128, bias=True)
          (norm1): LayerNorm((128,), eps=1e-05, elementwise_affine=True)
          (norm2): LayerNorm((128,), eps=1e-05, elementwise_affine=True)
          (dropout1): Dropout(p=0.05, inplace=False)
          (dropout2): Dropout(p=0.05, inplace=False)
        )
      )
    )
  )
  (activation): ReLU()
  (readout): Sequential(
    (0): Linear(in_features=128, out_features=128, bias=True)
    (1): ReLU()
    (2): Linear(in_features=128, out_features=128, bias=True)
    (3): ReLU()
    (4): Linear(in_features=128, out_features=1, bias=True)
  )
)
Number of parameters:  1190820
/home/zpengmei/miniforge3/envs/pytorch/lib/python3.11/site-packages/torch/nn/modules/transformer.py:380: UserWarning: The PyTorch API of nested tensors is in prototype stage and will change in the near future. (Triggered internally at /opt/conda/conda-bld/pytorch_1702400430266/work/aten/src/ATen/NestedTensorImpl.cpp:178.)
…
