# debugging run for testing the code implementation, not included in the result. Just for reference and reproducibility.

(pytorch) zpengmei@zpengmeiwork:~/Apps/SubFormer-Spec/scripts$ python pep-f.py
Random seed set as 4321
/home/zpengmei/miniforge3/envs/pytorch/lib/python3.11/site-packages/torch_geometric/deprecation.py:22: UserWarning: 'data.DataLoader' is deprecated, use 'loader.DataLoader' instead
  warnings.warn(out)
SubFormer(
  (local_mp): LocalMP(
    (atom_encoder): AtomEncoder(
      (embeddings): ModuleList(
        (0-8): 9 x Embedding(100, 64)
      )
    )
    (clique_encoder): Embedding(4, 64)
    (bond_encoders): ModuleList(
      (0-1): 2 x BondEncoder(
        (embeddings): ModuleList(
          (0-2): 3 x Embedding(6, 64)
        )
      )
    )
    (graph_convs): ModuleList(
      (0-1): 2 x GINEConv(nn=Sequential(
        (0): Linear(in_features=64, out_features=128, bias=True)
        (1): BatchNorm1d(128, eps=1e-05, momentum=0.1, affine=True, track_running_stats=True)
        (2): ReLU()
        (3): Linear(in_features=128, out_features=64, bias=True)
      ))
    )
    (graph_norms): ModuleList(
      (0-1): 2 x BatchNorm1d(64, eps=1e-05, momentum=0.1, affine=True, track_running_stats=True)
    )
    (sub_norms): ModuleList(
      (0-1): 2 x BatchNorm1d(64, eps=1e-05, momentum=0.1, affine=True, track_running_stats=True)
    )
    (atom2clique_lins): ModuleList(
      (0-1): 2 x Linear(in_features=64, out_features=64, bias=True)
    )
    (clique2atom_lins): ModuleList(
      (0-1): 2 x Linear(in_features=64, out_features=64, bias=True)
    )
    (clique): Linear(in_features=64, out_features=64, bias=True)
  )
  (pe): PositionalEncoding(
    (activation): GELU(approximate='none')
    (deg_emb): Embedding(100, 64)
    (deg_lin): Linear(in_features=64, out_features=64, bias=True)
    (deg_merge): Linear(in_features=64, out_features=64, bias=True)
    (lpe_lin): Linear(in_features=16, out_features=64, bias=True)
  )
  (encoder): Encoder(
    (activation): ReLU()
    (encoder_layer): TransformerEncoderLayer(
      (self_attn): MultiheadAttention(
        (out_proj): NonDynamicallyQuantizableLinear(in_features=128, out_features=128, bias=True)
      )
      (linear1): Linear(in_features=128, out_features=128, bias=True)
      (dropout): Dropout(p=0.15, inplace=False)
      (linear2): Linear(in_features=128, out_features=128, bias=True)
      (norm1): LayerNorm((128,), eps=1e-05, elementwise_affine=True)
      (norm2): LayerNorm((128,), eps=1e-05, elementwise_affine=True)
      (dropout1): Dropout(p=0.15, inplace=False)
      (dropout2): Dropout(p=0.15, inplace=False)
    )
    (encoder): TransformerEncoder(
      (layers): ModuleList(
        (0-2): 3 x TransformerEncoderLayer(
          (self_attn): MultiheadAttention(
            (out_proj): NonDynamicallyQuantizableLinear(in_features=128, out_features=128, bias=True)
          )
          (linear1): Linear(in_features=128, out_features=128, bias=True)
          (dropout): Dropout(p=0.15, inplace=False)
          (linear2): Linear(in_features=128, out_features=128, bias=True)
          (norm1): LayerNorm((128,), eps=1e-05, elementwise_affine=True)
          (norm2): LayerNorm((128,), eps=1e-05, elementwise_affine=True)
          (dropout1): Dropout(p=0.15, inplace=False)
          (dropout2): Dropout(p=0.15, inplace=False)
        )
      )
    )
    (cls_token): Linear(in_features=64, out_features=128, bias=True)
    (value_token): Linear(in_features=128, out_features=128, bias=True)
    (time_constant): Linear(in_features=128, out_features=128, bias=True)
    (gate_activation): GELU(approximate='none')
  )
  (activation): GELU(approximate='none')
  (readout): Sequential(
    (linear_0): Linear(in_features=128, out_features=64, bias=True)
    (activation_0): GELU(approximate='none')
    (linear_1): Linear(in_features=64, out_features=10, bias=True)
  )
)
Number of parameters:  579532
100%|████████████████████████████████████████████████████████████████████████████████████████████████| 170/170 [00:08<00:00, 21.02it/s]
Epoch: 001, LR: 0.00005, Loss: 0.4531, Train AP: 0.1759, Val MAE: 0.3756, Val AP: 0.2456, Test MAE: 0.3758, Test AP: 0.2428
100%|████████████████████████████████████████████████████████████████████████████████████████████████| 170/170 [00:06<00:00, 25.62it/s]
…
