# for debugging only, this run is not included

Random seed set as 4321
SubFormer(
  (local_mp): LocalMP(
    (atom_encoder): AtomEncoder(
      (embeddings): ModuleList(
        (0-8): 9 x Embedding(100, 64)
      )
    )
    (clique_encoder): Embedding(4, 64)
    (activation): ReLU()
    (back_activation): LeakyReLU(negative_slope=0.01)
    (bond_encoders): ModuleList(
      (0-1): 2 x BondEncoder(
        (embeddings): ModuleList(
          (0-2): 3 x Embedding(6, 64)
        )
      )
    )
    (graph_convs): ModuleList(
      (0-1): 2 x GINEConv(nn=Sequential(
        (0): Linear(in_features=64, out_features=128, bias=True)
        (1): BatchNorm1d(128, eps=1e-05, momentum=0.1, affine=True, track_running_stats=True)
        (2): ReLU()
        (3): Linear(in_features=128, out_features=64, bias=True)
      ))
    )
    (graph_norms): ModuleList(
      (0-1): 2 x BatchNorm1d(64, eps=1e-05, momentum=0.1, affine=True, track_running_stats=True)
    )
    (sub_norms): ModuleList(
      (0-1): 2 x BatchNorm1d(64, eps=1e-05, momentum=0.1, affine=True, track_running_stats=True)
    )
    (atom2clique_lins): ModuleList(
      (0-1): 2 x Linear(in_features=64, out_features=64, bias=True)
    )
    (clique2atom_lins): ModuleList(
      (0-1): 2 x Linear(in_features=64, out_features=64, bias=True)
    )
    (clique): Linear(in_features=64, out_features=64, bias=True)
  )
  (pe): PositionalEncoding(
    (activation): ReLU()
    (signnet_activation): ReLU()
    (deg_emb): Embedding(100, 64)
    (deg_lin): Linear(in_features=64, out_features=64, bias=True)
    (deg_merge): Linear(in_features=64, out_features=64, bias=True)
    (tree_lpe_lin): Linear(in_features=10, out_features=32, bias=True)
    (lpe_lin): Linear(in_features=10, out_features=32, bias=True)
  )
  (encoder): Encoder(
    (activation): ReLU()
    (encoder_layer): TransformerEncoderLayer(
      (self_attn): MultiheadAttention(
        (out_proj): NonDynamicallyQuantizableLinear(in_features=128, out_features=128, bias=True)
      )
      (linear1): Linear(in_features=128, out_features=128, bias=True)
      (dropout): Dropout(p=0.1, inplace=False)
      (linear2): Linear(in_features=128, out_features=128, bias=True)
      (norm1): LayerNorm((128,), eps=1e-05, elementwise_affine=True)
      (norm2): LayerNorm((128,), eps=1e-05, elementwise_affine=True)
      (dropout1): Dropout(p=0.1, inplace=False)
      (dropout2): Dropout(p=0.1, inplace=False)
    )
    (encoder): TransformerEncoder(
      (layers): ModuleList(
        (0-2): 3 x TransformerEncoderLayer(
          (self_attn): MultiheadAttention(
            (out_proj): NonDynamicallyQuantizableLinear(in_features=128, out_features=128, bias=True)
          )
          (linear1): Linear(in_features=128, out_features=128, bias=True)
          (dropout): Dropout(p=0.1, inplace=False)
          (linear2): Linear(in_features=128, out_features=128, bias=True)
          (norm1): LayerNorm((128,), eps=1e-05, elementwise_affine=True)
          (norm2): LayerNorm((128,), eps=1e-05, elementwise_affine=True)
          (dropout1): Dropout(p=0.1, inplace=False)
          (dropout2): Dropout(p=0.1, inplace=False)
        )
      )
    )
  )
  (readout): Sequential(
    (0): Linear(in_features=128, out_features=128, bias=True)
    (1): GELU(approximate='none')
    (2): Linear(in_features=128, out_features=128, bias=True)
    (3): GELU(approximate='none')
    (4): Linear(in_features=128, out_features=10, bias=True)
  )
)
Number of parameters:  571436

Run 1:

100%|█████████████████████████████████████████████████████████████████████████████████████████████████████████| 170/170 [00:09<00:00, 17.69it/s]
Epoch: 001, LR: 0.00010, Loss: 0.4198, Train AP: 0.1766, Val MAE: 0.3325, Val AP: 0.2716, Test MAE: 0.3320, Test AP: 0.2678
100%|█████████████████████████████████████████████████████████████████████████████████████████████████████████| 170/170 [00:07<00:00, 23.16it/s]
…
